…
ttps://localhost:8080/"},"id":"Ba9zX3jZugFz","executionInfo":{"status":"ok","timestamp":1717953340358,"user_tz":-330,"elapsed":1033,"user":{"displayName":"Sahil Ranjan","userId":"16062782326901064762"}},"outputId":"be405690-7155-4920-9a67-d08bf4c129fe"},"execution_count":10,"outputs":[{"output_type":"stream","name":"stdout","text":["Model: \"sequential\"\n","_________________________________________________________________\n"," Layer (type)                Output Shape              Param #   \n","=================================================================\n"," conv2d (Conv2D)             (None, 222, 222, 16)      448       \n","                                                                 \n"," conv2d_1 (Conv2D)           (None, 220, 220, 36)      5220      \n","                                                                 \n"," max_pooling2d (MaxPooling2  (None, 110, 110, 36)      0         \n"," D)                                                              \n","                                                                 \n"," conv2d_2 (Conv2D)           (None, 108, 108, 64)      20800     \n","                                                                 \n"," max_pooling2d_1 (MaxPoolin  (None, 54, 54, 64)        0         \n"," g2D)                                                            \n","                                                                 \n"," conv2d_3 (Conv2D)           (None, 52, 52, 128)       73856     \n","                                                                 \n"," max_pooling2d_2 (MaxPoolin  (None, 26, 26, 128)       0         \n"," g2D)                                                            \n","                                                                 \n"," dropout (Dropout)           (None, 26, 26, 128)       0         \n","                                                                 \n"," flatten (Flatten)           (None, 86528)             0         \n","                                                                 \n"," dense (Dense)               (None, 64)                5537856   \n","                                                                 \n"," dropout_1 (Dropout)         (None, 64)                0         \n","                                                                 \n"," dense_1 (Dense)             (None, 1)                 65        \n","                                                                 \n","=================================================================\n","Total params: 5638245 (21.51 MB)\n","Trainable params: 5638245 (21.51 MB)\n","Non-trainable params: 0 (0.00 Byte)\n","_________________________________________________________________\n"]}]},{"cell_type":"code","source":["model.compile(optimizer='
…
