…
tps://localhost:8080/"},"id":"Qs-z-m9uoOMM","executionInfo":{"status":"ok","timestamp":1715458220149,"user_tz":-330,"elapsed":18,"user":{"displayName":"Kishan Sanand","userId":"02900282968106850716"}},"outputId":"ba20e91d-294d-48b7-d3a9-8a887d77eea9"},"execution_count":null,"outputs":[{"output_type":"stream","name":"stdout","text":["Model: \"sequential\"\n","_________________________________________________________________\n"," Layer (type)                Output Shape              Param #   \n","=================================================================\n"," conv2d (Conv2D)             (None, 148, 148, 32)      896       \n","                                                                 \n"," conv2d_1 (Conv2D)           (None, 146, 146, 64)      18496     \n","                                                                 \n"," max_pooling2d (MaxPooling2  (None, 73, 73, 64)        0         \n"," D)                                                              \n","                                                                 \n"," dropout (Dropout)           (None, 73, 73, 64)        0         \n","                                                                 \n"," conv2d_2 (Conv2D)           (None, 71, 71, 64)        36928     \n","                                                                 \n"," conv2d_3 (Conv2D)           (None, 69, 69, 64)        36928     \n","                                                                 \n"," dropout_1 (Dropout)         (None, 69, 69, 64)        0         \n","                                                                 \n"," max_pooling2d_1 (MaxPoolin  (None, 34, 34, 64)        0         \n"," g2D)                                                            \n","                                                                 \n"," dropout_2 (Dropout)         (None, 34, 34, 64)        0         \n","                                                                 \n"," conv2d_4 (Conv2D)           (None, 32, 32, 128)       73856     \n","                                                                 \n"," conv2d_5 (Conv2D)           (None, 30, 30, 128)       147584    \n","                                                                 \n"," conv2d_6 (Conv2D)           (None, 28, 28, 128)       147584    \n","                                                                 \n"," max_pooling2d_2 (MaxPoolin  (None, 14, 14, 128)       0         \n"," g2D)                                                            \n","                                                                 \n"," dropout_3 (Dropout)         (None, 14, 14, 128)       0         \n","                                                                 \n"," conv2d_7 (Conv2D)           (None, 12, 12, 128)       147584    \n","                                                                 \n"," conv2d_8 (Conv2D)           (None, 10, 10, 256)       295168    \n","                                                                 \n"," max_pooling2d_3 (MaxPoolin  (None, 5, 5, 256)         0         \n"," g2D)                                                            \n","                                                                 \n"," dropout_4 (Dropout)         (None, 5, 5, 256)         0         \n","                                                                 \n"," flatten (Flatten)           (None, 6400)              0         \n","                                                                 \n"," dense (Dense)               (None, 512)               3277312   \n","                                                                 \n"," dense_1 (Dense)             (None, 512)               262656    \n","                                                                 \n"," dropout_5 (Dropout)         (None, 512)               0         \n","                                                                 \n"," dense_2 (Dense)             (None, 4)                 2052      \n","                                                                 \n","=================================================================\n","Total params: 4447044 (16.96 MB)\n","Trainable params: 4447044 (16.96 MB)\n","Non-trainable params: 0 (0.00 Byte)\n","_________________________________________________________________\n"]}]},{"cell_type":"code","source":["model.compile(loss='categor
…
